…
Unique raw labels (train) : [1 2 3 4 5 6]  (1-based integers)
Unique raw labels (test)  : [1 2 3 4 5 6]
=> Labels will be encoded to 0-based integers and one-hot encoded for Keras.

Number of classes : 6
Train set         : 6249 samples
Validation set    : 1103 samples
Test set          : 2947 samples
Input shape       : (128, 9)  (128 timesteps x 9 channels)
Model: "CNN_LSTM"
_________________________________________________________________
 Layer (type)                Output Shape              Param #   
=================================================================
 conv1d (Conv1D)             (None, 128, 64)           1792      
                                                                 
 batch_normalization (Batch  (None, 128, 64)           256       
 Normalization)                                                  
                                                                 
 max_pooling1d (MaxPooling1  (None, 64, 64)            0         
 D)                                                              
                                                                 
 dropout (Dropout)           (None, 64, 64)            0         
                                                                 
 conv1d_1 (Conv1D)           (None, 64, 128)           24704     
                                                                 
 batch_normalization_1 (Bat  (None, 64, 128)           512       
 chNormalization)                                                
                                                                 
 max_pooling1d_1 (MaxPoolin  (None, 32, 128)           0         
 g1D)                                                            
                                                                 
 dropout_1 (Dropout)         (None, 32, 128)           0         
                                                                 
 reshape (Reshape)           (None, 8, 512)            0         
                                                                 
 lstm (LSTM)                 (None, 8, 128)            328192    
                                                                 
 dropout_2 (Dropout)         (None, 8, 128)            0         
                                                                 
 lstm_1 (LSTM)               (None, 64)                49408     
                                                                 
 dropout_3 (Dropout)         (None, 64)                0         
                                                                 
 dense (Dense)               (None, 64)                4160      
                                                                 
 dropout_4 (Dropout)         (None, 64)                0         
                                                                 
 dense_1 (Dense)             (None, 6)                 390       
                                                                 
=================================================================
Total params: 409414 (1.56 MB)
Trainable params: 409030 (1.56 MB)
Non-trainable params: 384 (1.50 KB)
_________________________________________________________________
=======================================================
Training CNN-LSTM...
=======================================================
…
