…
Unique raw labels (train) : [1 2 3 4 5 6]  (1-based integers)
Unique raw labels (test)  : [1 2 3 4 5 6]
=> Labels will be encoded to 0-based integers and one-hot encoded for Keras.

Number of classes : 6
Train set         : 6249 samples
Validation set    : 1103 samples
Test set          : 2947 samples
Input shape       : (128, 9)  (128 timesteps x 9 channels)
Model: "LSTM"
_________________________________________________________________
 Layer (type)                Output Shape              Param #   
=================================================================
 lstm (LSTM)                 (None, 128, 128)          70656     
                                                                 
 dropout (Dropout)           (None, 128, 128)          0         
                                                                 
 lstm_1 (LSTM)               (None, 64)                49408     
                                                                 
 dropout_1 (Dropout)         (None, 64)                0         
                                                                 
 dense (Dense)               (None, 64)                4160      
                                                                 
 dropout_2 (Dropout)         (None, 64)                0         
                                                                 
 dense_1 (Dense)             (None, 6)                 390       
                                                                 
=================================================================
Total params: 124614 (486.77 KB)
Trainable params: 124614 (486.77 KB)
Non-trainable params: 0 (0.00 Byte)
_________________________________________________________________
