…
Unique raw labels (train) : [1 2 3 4 5 6]  (1-based integers)
Unique raw labels (test)  : [1 2 3 4 5 6]
=> Labels will be encoded to 0-based integers and one-hot encoded for Keras.

Number of classes : 6
Train set         : 6249 samples
Validation set    : 1103 samples
Test set          : 2947 samples
Input shape       : (128, 9)  (128 timesteps x 9 channels)
Model: "CNN"
_________________________________________________________________
 Layer (type)                Output Shape              Param #   
=================================================================
 conv1d (Conv1D)             (None, 128, 64)           1792      
                                                                 
 batch_normalization (Batch  (None, 128, 64)           256       
 Normalization)                                                  
                                                                 
 max_pooling1d (MaxPooling1  (None, 64, 64)            0         
 D)                                                              
                                                                 
 dropout (Dropout)           (None, 64, 64)            0         
                                                                 
 conv1d_1 (Conv1D)           (None, 64, 128)           24704     
                                                                 
 batch_normalization_1 (Bat  (None, 64, 128)           512       
 chNormalization)                                                
                                                                 
 max_pooling1d_1 (MaxPoolin  (None, 32, 128)           0         
 g1D)                                                            
                                                                 
 dropout_1 (Dropout)         (None, 32, 128)           0         
                                                                 
 conv1d_2 (Conv1D)           (None, 32, 64)            24640     
                                                                 
 batch_normalization_2 (Bat  (None, 32, 64)            256       
 chNormalization)                                                
                                                                 
 max_pooling1d_2 (MaxPoolin  (None, 16, 64)            0         
 g1D)                                                            
                                                                 
 dropout_2 (Dropout)         (None, 16, 64)            0         
                                                                 
 flatten (Flatten)           (None, 1024)              0         
                                                                 
 dense (Dense)               (None, 128)               131200    
                                                                 
 dropout_3 (Dropout)         (None, 128)               0         
                                                                 
 dense_1 (Dense)             (None, 6)                 774       
                                                                 
=================================================================
Total params: 184134 (719.27 KB)
Trainable params: 183622 (717.27 KB)
Non-trainable params: 512 (2.00 KB)
_________________________________________________________________
=======================================================
Training CNN...
=======================================================
…
